Using TensorFlow backend.
_________________________________________________________________
Layer (type)                 Output Shape              Param #   
=================================================================
input_1 (InputLayer)         (None, 10)                0         
_________________________________________________________________
embedding_1 (Embedding)      (None, 10, 50)            20000050  
_________________________________________________________________
lstm_1 (LSTM)                (None, 10, 128)           91648     
_________________________________________________________________
dropout_1 (Dropout)          (None, 10, 128)           0         
_________________________________________________________________
lstm_2 (LSTM)                (None, 128)               131584    
_________________________________________________________________
dropout_2 (Dropout)          (None, 128)               0         
_________________________________________________________________
dense_1 (Dense)              (None, 5)                 645       
_________________________________________________________________
activation_1 (Activation)    (None, 5)                 0         
=================================================================
Total params: 20,223,927
Trainable params: 20,223,927
Non-trainable params: 0
_________________________________________________________________
Epoch 1/100
 32/132 [======>.......................] - ETA: 9s - loss: 1.6110 - acc: 0.1562
 64/132 [=============>................] - ETA: 3s - loss: 1.6109 - acc: 0.2031
 96/132 [====================>.........] - ETA: 1s - loss: 1.6087 - acc: 0.2188
…
